test/resources/artiKNN3.onnx (onnx, 9227 bytes, 1 tensors)

Sc_Scancst f4 [500, 2]
0	0x3ed1a9d6	0.40949887
1	0x3f51bd7e	0.8192977
2	0x3f2bea2b	0.67154187
3	0x3e7727a2	0.24136212
4	0x3f1a6029	0.6030298
5	0x3dde74be	0.108621106
6	0x3e74502d	0.2385871
7	0x3ee4c9a3	0.44685087
8	0x3f50e35f	0.8159694
9	0x3e5b3f26	0.21410808
10	0x3f09dafb	0.5384976
11	0x3f64396c	0.8915012
12	0x3ee48648	0.44633698
13	0x3e38bf84	0.18041807
14	0x3f7eb21d	0.9949053
15	0x3f53b7cd	0.8270233
16	0x3d628256	0.05530008
17	0x3f6135c6	0.87972677
18	0x3e9044bb	0.28177437
19	0x3e61f326	0.2206541
20	0x3f5df5e0	0.867033
21	0x3e8521c8	0.26002336
22	0x3f7de92f	0.99183935
23	0x3e61bf04	0.22045523
24	0x3efd146e	0.4942965
25	0x3effa4c4	0.49930394
26	0x3ef230d8	0.4730289
27	0x3f374646	0.71591604
28	0x3f30fdc7	0.69137233
29	0x3f43d605	0.7649844
30	0x3b4e6f16	0.0031499318
31	0x3dbd1c78	0.092339456
32	0x3c62ef6b	0.013851027
33	0x3f140fe2	0.57836735
34	0x3de2db64	0.11077002
35	0x3ddac065	0.106812276
36	0x3f1604b4	0.58600926
37	0x3e4fa7fe	0.20278928
38	0x3ebbceea	0.366813
39	0x3e3ec2f4	0.18629056
40	0x3f71416b	0.94240445
41	0x3eb3902c	0.35070932
42	0x3df947ba	0.12171884
43	0x3f346549	0.7046705
44	0x3f3433d9	0.70391613
45	0x3f0eba9b	0.5575349
46	0x3e68a41d	0.22718854
47	0x3ee2ad59	0.4427288
48	0x3f2e3e3d	0.6806372
49	0x3f1f667b	0.6226575
50	0x3f6ec880	0.9327469
51	0x3f593dd7	0.84859985
52	0x3f556199	0.8335205
53	0x3ee59227	0.44838068
54	0x3ee39ff8	0.44457984
55	0x3da31bcb	0.079642855
56	0x3cd812b1	0.0263761
57	0x3ed95c4c	0.4245323
58	0x3f42cf0e	0.7609719
59	0x3f450c3f	0.7697181
60	0x3e96f7fc	0.29486072
61	0x3f0a15ca	0.539395
62	0x3f46d255	0.7766469
63	0x3e73ef2b	0.23821704
64	0x3f248595	0.6426633
65	0x3db2f08c	0.08737287
66	0x3d7d12c4	0.061785474
67	0x3f42fc90	0.7616663
68	0x3f4bf39b	0.7966859
69	0x3b149c32	0.0022676107
70	0x3eca82fd	0.3955306
71	0x3ee87215	0.45399538
72	0x3f3ab55b	0.72932976
73	0x3e2a3656	0.1662229
74	0x3ed9a16b	0.42505965
75	0x3f7a3424	0.9773581
76	0x3d8b4696	0.068005726
77	0x3ede1d85	0.43381897
78	0x3ee7bdc3	0.45261964
79	0x3f62735b	0.8845727
80	0x3cd67c1a	0.026182223
81	0x3c729207	0.014805323
82	0x3edc8a65	0.43074337
83	0x3e02bc45	0.12767132
84	0x3f4a409f	0.79004854
85	0x3d900f22	0.07034136
86	0x3df811bf	0.1211276
87	0x3e3043ee	0.17213413
88	0x3f05d1f1	0.5227347
89	0x3eeeaf03	0.46617898
90	0x3ded153b	0.11576315
91	0x3f384c23	0.71991175
92	0x3f31b2e2	0.6941358
93	0x3eb018bc	0.3439387
94	0x3eb6e240	0.3571949
95	0x3f18c0b7	0.5966906
96	0x3e58b1c1	0.21161558
97	0x3f2cb212	0.67459214
98	0x3f764806	0.9620365
99	0x3dafb4b4	0.08579388
100	0x3ed32fe8	0.41247487
101	0x3f2458a5	0.6419776
102	0x3e8e9af8	0.27852607
103	0x3f0f03b4	0.55865026
104	0x3e66c4b6	0.22535977
105	0x3cc7c36a	0.024385173
106	0x3ed8e525	0.42362323
107	0x3f255a44	0.6459086
108	0x3e0db750	0.1383946
109	0x3e98e787	0.2986414
110	0x3eca53d4	0.3951708
111	0x3eda0e1e	0.42588896
112	0x3e4bffb9	0.19921769
113	0x3f2293aa	0.6350657
114	0x3f5d56df	0.8646068
115	0x3ecad492	0.39615303
116	0x3ea7fcee	0.32810158
117	0x3e52c7ae	0.20583984
118	0x3f750cbb	0.9572255
119	0x3f5a1cc8	0.85200167
120	0x3dc151c1	0.094394214
121	0x3ee9471b	0.45562062
122	0x3e016c24	0.12638909
123	0x3f06996a	0.5257784
124	0x3f3d4db7	0.7394671
125	0x3f6f00d2	0.93360627
126	0x3f1bf284	0.60916924
127	0x3f03d9a6	0.5150398
128	0x3f20466c	0.62607455
129	0x3e51d895	0.20492776
130	0x3f37c99d	0.7179201
131	0x3f1ea7a1	0.6197453
132	0x3d90cd67	0.070704274
133	0x3f378257	0.7168326
134	0x3f185f26	0.59520185
135	0x3e8b2364	0.27175438
136	0x3f0f3b9d	0.5595034
137	0x3c68637c	0.014183875
138	0x3e86f61c	0.26359642
139	0x3dbf488a	0.093400076
140	0x3e22a855	0.15884526
141	0x3f3a3c95	0.7274869
142	0x3f6d0122	0.92579854
143	0x3ed5a759	0.4172924
144	0x3e99854c	0.2998451
145	0x3e1aea62	0.15128472
146	0x3f565f54	0.8373921
147	0x3f2704d2	0.6524173
148	0x3dd1400a	0.102172926
149	0x3f3cfa78	0.73819685
150	0x3f2ee02b	0.68310803
151	0x3dea28aa	0.11433537
152	0x3f24f7d4	0.64440656
153	0x3e722415	0.23646577
154	0x3f51daac	0.8197429
155	0x3e0c9f77	0.13732706
156	0x3ef97b98	0.48727107
157	0x3e798958	0.24368799
158	0x3dc7866d	0.097424366
159	0x3f57fe55	0.84372455
160	0x3f4a99df	0.7914104
161	0x3f2459c0	0.6419945
162	0x3d4f9463	0.050678622
163	0x3ea67fb9	0.3251932
164	0x3f389f6c	0.7211826
165	0x3e4c5e48	0.1995784
166	0x3f27d60f	0.65561
167	0x3f4823a2	0.7817937
168	0x3f39457c	0.7237165
169	0x3f7c7847	0.9862103
170	0x3f5534a7	0.83283466
171	0x3edbc000	0.42919922
172	0x3f3480f2	0.70509255
173	0x3d740179	0.059571717
174	0x3ef0d32d	0.47036114
175	0x3f0e06f6	0.5547937
176	0x3f094350	0.53618336
177	0x3f6e278c	0.93029094
178	0x3e5c1082	0.21490672
179	0x3ebaa077	0.3645055
180	0x3f0d1807	0.5511479
181	0x3f1721e6	0.590361
182	0x3e81e8c1	0.2537289
183	0x3f3028d3	0.6881229
184	0x3f46ba83	0.77628344
185	0x3f1e2d26	0.6178764
186	0x3ee93407	0.45547506
187	0x3f2a97fe	0.6663817
188	0x3f3276ab	0.6971232
189	0x3e665f70	0.22497344
190	0x3e74fcd8	0.23924577
191	0x3f724c1a	0.9464737
192	0x3efbe852	0.49200684
193	0x3df67030	0.12033117
194	0x3f41d777	0.757194
195	0x3ea288c9	0.31744984
196	0x3f23e4e3	0.6402113
197	0x3f2d7989	0.6776357
198	0x3f6a52fd	0.9153288
199	0x3f5f69fe	0.87271106
200	0x3e673930	0.22580409
201	0x3e0e6f46	0.13909635
202	0x3eee100c	0.46496618
203	0x3e400241	0.1875086
204	0x3eef31d2	0.46717697
205	0x3f4ea4ba	0.807201
206	0x3dc98bc1	0.09841109
207	0x3f1125ee	0.566985
208	0x3f4f7e12	0.81051743
209	0x3f04a0f7	0.5180811
210	0x3f6e6e65	0.931372
211	0x3f30ffd5	0.6914037
212	0x3f5dcbbc	0.86639
213	0x3f1f5745	0.6224254
214	0x3b0a123f	0.0021068004
215	0x3f3ecb58	0.7452903
216	0x3f70e80b	0.9410407
217	0x3f2e35e3	0.68050975
218	0x3e2b12ad	0.16706343
219	0x3ef876ac	0.4852804
220	0x3ed0373f	0.4066715
221	0x3e3f4097	0.18676983
222	0x3f5997d1	0.8499728
223	0x3f08eb7a	0.5348431
224	0x3d457f2d	0.048216987
225	0x3d84e392	0.06488718
226	0x3d479249	0.048723493
227	0x3f24f5cd	0.6443756
228	0x3e1c01d2	0.1523507
229	0x3f6fbd85	0.9364856
230	0x3f1fdfa4	0.62450624
231	0x3f18e9cc	0.59731746
232	0x3f642a3f	0.8912696
233	0x3f1aa895	0.60413486
234	0x3f7f2777	0.99669594
235	0x3f581797	0.84410995
236	0x3e15f72a	0.14645067
237	0x3f0dfa7f	0.5546035
238	0x3f314a3c	0.692539
239	0x3f5b3719	0.8563095
240	0x3f28a8a5	0.6588233
241	0x3e5fdd8b	0.21861856
242	0x3e93f003	0.28894052
243	0x3ebe1bca	0.37130576
244	0x3f0217b8	0.5081744
245	0x3f257ea8	0.6464639
246	0x3ec7b6ee	0.39006752
247	0x3f67fa65	0.90616447
248	0x3eef0782	0.46685416
249	0x3df5e7fb	0.120071374
250	0x3de3da76	0.111256525
251	0x3d4a7431	0.049427215
252	0x3eadfb1c	0.33980644
253	0x3eaa656b	0.332805
254	0x3e01e0a4	0.1268335
255	0x3f01b8f7	0.5067286
